model.ckpt (torch, 193943 bytes, 199 tensors)

weight f4 [1, 4]
0	0xbaa714af	-0.0012747253
1	0x3a68abf4	0.00088757207
2	0x3a4ec7e8	0.0007888065
3	0x3a8e9d09	0.001088054

weight f4 [1, 4]
0	0xba874cfd	-0.0010322627
1	0x3a8be71a	0.0010673732
2	0xba6dce1c	-0.0009071545
3	0xba85a2eb	-0.0010195648

weight f4 [9, 4]
0	0x3a87a9eb	0.0010350322
1	0x3a794b3d	0.00095098076
2	0x3a923cc6	0.0011157028
3	0x3a7c7eb1	0.00096319156
4	0xba913361	-0.0011077934
5	0xba7f289d	-0.000973353
6	0x3a80e4dc	0.000983383
7	0x3a630028	0.0008659386
8	0xba621cf1	-0.00086255284
9	0xba6a7cea	-0.0008945005
10	0xba732033	-0.00092745124
11	0xba85dae1	-0.0010212326
12	0xba81f983	-0.0009916279
13	0x3a81387f	0.0009858756
14	0x3a8ede7a	0.0010900043
15	0xba822cb2	-0.0009931533
16	0xba759f36	-0.00093697326
17	0xba8209a9	-0.0009921092
18	0xba8ff551	-0.0010983144
19	0x3a893400	0.0010467768
20	0xba8bf1c5	-0.0010676911
21	0x3a6f171e	0.0009120571
22	0x3a785405	0.0009472969
23	0x3a4a3eaa	0.0007715026
24	0x3a840923	0.0010073524
25	0x3a7e755e	0.000970682
26	0x3a8eb1bc	0.0010886709
27	0x3a556546	0.0008140396
28	0xba8d7069	-0.0010790947
29	0x3a757ff1	0.0009365073
30	0x3a6b8ebb	0.0008985807
31	0x3a5e9d3e	0.0008492059
32	0x3a8cf18b	0.0010753138
33	0x3a8cab91	0.0010732283
34	0x3a791078	0.000950105
35	0x3a6548cc	0.00087465043

weight f4 [5, 4]
0	0x3a7da36d	0.00096755364
1	0x3a95c23e	0.0011425687
2	0x3a76fc36	0.00094217376
3	0xba5ef110	-0.0008504549
4	0xba548167	-0.00081064407
5	0xba7c3d33	-0.00096221565
6	0xba850fae	-0.0010151768
7	0xba806b8a	-0.0009797674
8	0x3a843891	0.0010087659
9	0x3a83a4e0	0.0010043643
10	0x3a95d1dc	0.0011430341
11	0x3a891138	0.0010457402
12	0x3a7cabec	0.00096386555
13	0x3a82db22	0.000998352
14	0xba8f4391	-0.001093017
15	0xba78d17c	-0.0009491665
16	0x3a6ba5ec	0.0008989263
17	0x3a85f230	0.0010219272
18	0x3a56dfda	0.00081968086
19	0x3a7fdb5d	0.00097601657

weight f4 [8, 4]
0	0xba970142	-0.0011520761
1	0xba811631	-0.0009848532
2	0xba816860	-0.0009873025
3	0xba8fa9e0	-0.0010960661
4	0x3a89f3de	0.0010524949
5	0x3a91bb29	0.00111184
6	0x3a5a0e99	0.0008318215
7	0x3a5c82dc	0.00084118336
8	0xba6b5834	-0.0008977682
9	0xba80ce19	-0.0009827047
10	0x3a63ff92	0.0008697446
11	0xba74f76b	-0.00093447295
12	0xba595a3e	-0.000829134
13	0x3a89be40	0.001050897
14	0xba851cb5	-0.001015565
15	0x3a810522	0.0009843449
16	0x3a91d3d0	0.0011125747
17	0x3a894a36	0.0010474387
18	0x3a5fb520	0.00085337646
19	0x3a737f48	0.0009288681
20	0xba7a24f5	-0.000954225
21	0x3a8d59b3	0.0010784179
22	0xba820f59	-0.0009922787
23	0x3a857b15	0.0010183776
24	0xba784fa5	-0.0009472317
25	0xba806972	-0.000979705
26	0xba902ee9	-0.0011000308
27	0xba92dfd4	-0.0011205622
28	0x3a71b112	0.0009219806
29	0x3a838dcc	0.0010036766
30	0x3a7b404e	0.0009584472
31	0x3a890c46	0.0010455928

weight f4 [4, 4]
0	0x3a6624bd	0.0008779278
1	0xba453b6c	-0.0007523808
2	0xba821c04	-0.0009926562
3	0x3a8cefb6	0.0010752592
4	0x3a885ea4	0.0010404182
5	0x3a6ccfc4	0.0009033645
6	0xba659406	-0.0008757714
7	0x3a80c95b	0.0009825634
8	0xba8bee7a	-0.001067593
9	0xba8160dc	-0.0009870785
10	0xba933635	-0.0011231365
11	0xba81efad	-0.0009913348
12	0x3a6b7f7e	0.00089835364
13	0x3a7696e4	0.000940664
14	0x3a9650d8	0.0011468185
15	0x3a63f324	0.00086955936

weight f4 [6, 4]
0	0xba58ff0b	-0.00082777505
1	0xba7b929d	-0.0009596737
2	0xba5dcdd6	-0.0008461153
3	0x3a7f4a61	0.00097385613
4	0x3a86bb2a	0.0010279168
5	0x3a89ee62	0.0010523314
6	0x3a8e25f4	0.0010845051
7	0xba797988	-0.0009516706
8	0x3a5defbd	0.0008466205
9	0x3a87425c	0.0010319459
10	0x3a4848e8	0.00076402584
11	0x3a8e69ab	0.0010865232
12	0x3a8665b3	0.0010253697
13	0xba723c0c	-0.0009240515
14	0x3a881326	0.0010381683
15	0xba942721	-0.0011303165
16	0xba68fde2	-0.0008887929
17	0xba5430de	-0.000809444
18	0xba7c45f6	-0.0009623462
19	0xba9b33bc	-0.001184098
20	0x3a861c30	0.0010231789
21	0x3aa03164	0.0012221751
22	0x3a8952e3	0.0010476973
23	0x3a6d20f7	0.00090457447

weight f4 [6, 4]
0	0x3a830dfb	0.0009998673
1	0x3a7e0241	0.0009689667
2	0xba4fe96c	-0.0007931206
3	0xba9648d7	-0.00114658
4	0xba8765a1	-0.001032997
5	0xba8393e8	-0.0010038586
6	0x3a81343b	0.0009857485
7	0x3a81744c	0.0009876578
8	0xba95a9e9	-0.0011418435
9	0xba6b8af3	-0.00089852436
10	0x3a7fb452	0.0009754348
11	0x3a873217	0.001031461
12	0xba651498	-0.00087387254
13	0xba829f2c	-0.000996565
14	0xba69ea32	-0.00089231424
15	0xba9efb26	-0.0012129291
16	0x3a61691b	0.0008598731
17	0x3a970e94	0.001152473
18	0xba8e2528	-0.0010844814
19	0xba6e0ae3	-0.0009080602
20	0x3a885a1f	0.0010402835
21	0x3a8c3279	0.0010696194
22	0xba9789b5	-0.0011561426
23	0xba90275e	-0.001099806

weight f4 [4, 4]
0	0x3a90953e	0.0011030806
1	0x3a73a628	0.00092944736
2	0x3aac9254	0.0013166168
3	0x3a8cabc0	0.0010732338
4	0x3a8b2986	0.0010617233
5	0x3a746829	0.00093233824
6	0x3a64277d	0.0008703394
7	0x3a79023f	0.0009498931
8	0x3a6a1a06	0.00089302694
9	0x3a73a59f	0.0009294394
10	0x3a909e46	0.0011033497
11	0x3a806cbc	0.000979803
12	0x3a7cdad2	0.0009645644
13	0x3a927000	0.0011172295
14	0x3a96eeb6	0.0011515233
15	0x3a727d5c	0.00092502474

weight f4 [8, 4]
0	0x3a7ea11d	0.0009713339
1	0x3a5558e2	0.000813855
2	0x3a7f8d36	0.000974852
3	0x3a88d576	0.0010439593
4	0xba885dc8	-0.0010403926
5	0xba90ee9b	-0.0011057438
6	0xba74ec80	-0.00093431026
7	0xba8fd9e7	-0.0010974974
8	0xba95db61	-0.0011433178
9	0xba522b34	-0.0008017302
10	0xba86f166	-0.0010295331
11	0xba9ce659	-0.0011970504
12	0xba723e39	-0.0009240839
13	0xba652723	-0.00087414886
14	0x3a7385e4	0.00092896656
15	0x3a94edc3	0.0011362362
16	0xba82a3ef	-0.0009967069
17	0x3a873f0a	0.001031847
18	0xba7be089	-0.00096083485
19	0xba822e88	-0.000993208
20	0x3a71735d	0.0009210611
21	0x3a8b8938	0.0010645753
22	0x3a77f8f4	0.0009459399
23	0xba99de72	-0.0011739268
24	0x3a7fdda5	0.00097605056
25	0x3a5e89d4	0.0008489166
26	0x3a650853	0.0008736897
27	0x3a97b74e	0.0011575015
28	0xba6849ab	-0.0008861075
29	0x3a8c6d95	0.001071381
30	0xba80e67b	-0.0009834314
31	0xba877895	-0.0010335619

weight f4 [1, 4]
0	0x3a96808a	0.00114824
1	0x3aa3eafa	0.0012505942
2	0x3a7b5573	0.0009587623
3	0x3a9038b8	0.0011003232

weight f4 [9, 4]
0	0x3a8c05fe	0.0010682938
1	0x3a780835	0.0009461672
2	0x3a84b6f6	0.0010125327
3	0x3a596c3e	0.00082940224
4	0xba588eee	-0.0008261044
5	0xba7bedef	-0.0009610345
6	0x3a7cdb42	0.0009645709
7	0xba971d2b	-0.0011529078
8	0xba8bc55e	-0.0010663678
9	0xba7fd252	-0.0009758818
10	0xba81c8e2	-0.0009901787
11	0xba8584d7	-0.0010186684
12	0x3a8eb1dc	0.0010886746
13	0x3a8a4896	0.0010550197
14	0x3a6126eb	0.0008588868
15	0x3a5fae7f	0.0008532777
16	0x3a94ea06	0.0011361248
17	0x3a88e8c8	0.0010445351
18	0x3a6ef25f	0.00091150956
19	0x3a5ed5b0	0.000850047
20	0x3a8da20f	0.0010805744
21	0xba783cbc	-0.00094694993
22	0xba9955ec	-0.001169858
23	0x3a840e9e	0.0010075157
24	0x3a78a73f	0.0009485371
25	0x3a8acf53	0.0010590352
26	0x3a7dd917	0.0009683533
27	0xba59a186	-0.0008301962
28	0x3a8addba	0.0010594644
29	0x3a87d64a	0.0010363546
30	0x3a6561b5	0.0008750216
31	0x3a8551e7	0.0010171504
32	0xba999350	-0.0011716876
33	0xba9541b7	-0.0011387382
34	0xba6b70b1	-0.0008981331
35	0xba5f3903	-0.00085152703

weight f4 [3, 4]
0	0xb8af8654	-8.369671e-05
1	0xb8b3df2c	-8.576954e-05
2	0x38342a2d	4.2954623e-05
3	0xb8157f72	-3.564306e-05
4	0x3a92dd66	0.0011204898
5	0x3a82013e	0.0009918583
6	0x3a808927	0.00098065
7	0x3a7e40dd	0.00096989964
8	0x3a6a59df	0.00089397834
9	0x3a88ec44	0.0010446389
10	0x3a898c70	0.0010494124
11	0x3a6d7481	0.0009058193

weight f4 [6, 4]
0	0x3825f047	3.956284e-05
1	0x3885c376	6.378342e-05
2	0xb888fc8f	-6.532028e-05
3	0x36953277	4.446421e-06
4	0xba764c64	-0.00093955384
5	0x3a87e5a1	0.0010368117
6	0xba816729	-0.0009872663
7	0x3a77e6de	0.0009456704
8	0xba87714e	-0.001033345
9	0xba97cf0a	-0.0011582088
10	0x3a8c0d07	0.0010685035
11	0x3a8b52d5	0.0010629544
12	0xba5bceb9	-0.0008384991
13	0xba8ac52b	-0.0010587325
14	0xba6a072d	-0.0008927461
15	0x3a9c119c	0.0011907103
16	0xba6925c0	-0.000889387
17	0xba9f3938	-0.001214779
18	0x3a9972ca	0.0011707183
19	0x3a68deee	0.0008883317
20	0xba7a2032	-0.00095415406
21	0x3a505d94	0.00079485145
22	0x3a89f03f	0.001052387
23	0x3a7969c6	0.00095143577

weight f4 [9, 4]
0	0xb898bc16	-7.2829585e-05
1	0xb852d3d4	-5.0265182e-05
2	0x384904a8	4.792647e-05
3	0xb7807850	-1.5314814e-05
4	0xba7169af	-0.00092091685
5	0x38a544be	7.880617e-05
6	0xba75f2cd	-0.00093821884
7	0xba6beed2	-0.00090001256
8	0xba875a5b	-0.0010326611
9	0x3830c00f	4.214054e-05
10	0x388b30f1	6.6371525e-05
11	0x38b3bd1a	8.570608e-05
12	0xba7ed675	-0.00097212876
13	0xba54d222	-0.00081184704
14	0xba7190e2	-0.00092150096
15	0x3a662b49	0.00087802537
16	0xba840aa2	-0.001007397
17	0xba6e0b72	-0.0009080685
18	0xba7d371c	-0.0009659396
19	0xba76ee75	-0.0009419688
20	0x388f0071	6.8188536e-05
21	0xba83bb16	-0.0010050263
22	0x3a812638	0.0009853309
23	0xba3daf62	-0.0007235912
24	0x3a801c8d	0.0009774134
25	0x3a81d60b	0.0009905709
26	0x3a93be0c	0.0011271848
27	0x3a8595f7	0.0010191788
28	0x3a83d31c	0.0010057422
29	0x3a87f8cf	0.0010373833
30	0x3a7cf594	0.0009649631
31	0x3a4d26ae	0.0007825893
32	0x38a87a2e	8.033622e-05
33	0xba651a1b	-0.0008739547
34	0x3a855423	0.001017217
35	0xba5ecb9f	-0.000849897

weight f4 [12, 1]
0	0x3a782f78	0.00094675226
1	0x3a872c11	0.0010312815
2	0x3a6c9cba	0.00090260396
3	0x3a99df26	0.0011739477
4	0x3a93bb4b	0.0011271028
5	0x3a8a715a	0.0010562346
6	0x3a75d94d	0.00093783886
7	0x3a8ff57c	0.0010983194
8	0x3a73c6c5	0.00092993333
9	0x3a5ca914	0.00084175286
10	0x3a8fbb26	0.0010965809
11	0x3a97b361	0.0011573845

weight f4 [9, 1]
0	0x3a942752	0.0011303222
1	0x3a8542db	0.0010167019
2	0xba6be46d	-0.00089985767
3	0x3a665880	0.0008786991
4	0xba8b425f	-0.0010624639
5	0x3a6faea5	0.00091431505
6	0x3a88541b	0.0010401042
7	0x3a8623e3	0.0010234084
8	0x3a70dfca	0.00091886206

weight f4 [5, 1]
0	0x3a77a7f9	0.0009447332
1	0xba6e39bc	-0.00090875826
2	0x3a615c9e	0.000859687
3	0xba80c377	-0.0009823878
4	0x3a719258	0.00092152273

weight f4 [8, 1]
0	0xba6fbf46	-0.00091456284
1	0x3a80efe0	0.0009837113
2	0x3a89abfe	0.0010503528
3	0x3a9b0c50	0.0011829231
4	0x3a873457	0.0010315281
5	0x3a87955a	0.0010344193
6	0xba79a23f	-0.0009522773
7	0x3a8f0d80	0.0010914057

weight f4 [4, 1]
0	0x3a791a1a	0.00095024856
1	0x3a6c8804	0.00090229535
2	0x3a904ac1	0.0011008607
3	0xba7df058	-0.0009686998

weight f4 [6, 1]
0	0x3a82c255	0.0009976128
1	0xba8e5e01	-0.0010861756
2	0x3a9c076b	0.0011904066
3	0xba913376	-0.0011077959
4	0x3a92f219	0.0011211067
5	0xba706a4a	-0.0009171112

weight f4 [6, 1]
0	0x3a62c73a	0.0008650903
1	0x3a7e9800	0.0009711981
2	0x3a80d5ba	0.000982932
3	0x3a90859c	0.0011026147
4	0xba8d568e	-0.0010783242
5	0xba769d83	-0.00094076263

weight f4 [4, 1]
0	0x3a8ab55e	0.0010582616
1	0x3a6e3709	0.00090871804
2	0x3a938389	0.001125441
3	0x3a73f767	0.000930658

weight f4 [8, 1]
0	0x3a8abf62	0.0010585601
1	0xba504166	-0.00079443154
2	0xba7dfda0	-0.0009688977
3	0xba8ce982	-0.0010750743
4	0x3a91442f	0.0011082942
5	0x3a7477b3	0.0009325698
6	0x3a475c94	0.0007605043
7	0x3a83fea1	0.0010070392

weight f4 [9, 1]
0	0xba6e7f99	-0.0009097993
1	0x3a765336	0.00093965547
2	0x3a8e46e6	0.001085487
3	0xba83f46d	-0.0010067351
4	0xba7b0792	-0.0009576018
5	0xba8517f7	-0.0010154237
6	0x3a7f727b	0.0009744537
7	0x3a8221b5	0.0009928258
8	0x3a9047d2	0.0011007732

weight f4 [3, 1]
0	0xb7b42a59	-2.1477392e-05
1	0x3a857df1	0.0010184628
2	0x3a98dab4	0.0011661858

weight f4 [6, 1]
0	0x37075c06	8.068053e-06
1	0x3a6ee578	0.0009113173
2	0x3a56d742	0.0008195528
3	0x3a7fb813	0.0009754907
4	0x3a73a95d	0.00092949515
5	0x3a857f6b	0.0010185068

weight f4 [9, 1]
0	0xb88e243f	-6.777839e-05
1	0x3a8699d5	0.0010269234
2	0x3a83ba3f	0.0010050012
3	0x3a8c8212	0.0010719916
4	0xb85f8320	-5.3289463e-05
5	0xb91ff651	-0.00015255182
6	0x3a81ab2a	0.000989293
7	0xba7c0f6a	-0.0009615334
8	0xb51303a9	-5.4767094e-07

weight f4 [1, 66]
0	0xbd610f05	-0.054945964
1	0x3c9d9d88	0.019240156
2	0x3de27b34	0.110586554
3	0x3de8497c	0.11342141
4	0xbd1948fb	-0.037423115
5	0xbdc7c2b5	-0.09753934
6	0x3d8f3d3a	0.069941
7	0xbdc685f7	-0.096935205
8	0xbcc4b2ad	-0.02401098
9	0x3dead8a3	0.114671014
10	0x3df4ba29	0.1194957
11	0x3dbf78b6	0.09349196
12	0xbd60ff76	-0.054931127
13	0x3d1a2612	0.037633963
14	0xbd860c87	-0.06545358
15	0xbca3acdb	-0.019979885
16	0xbd801465	-0.0625389
17	0xbc880f1a	-0.016608763
18	0x3daed47a	0.085366204
19	0xbbe1807c	-0.0068817716
20	0x3dae980e	0.08525096
21	0xbd834448	-0.06409508
22	0xbd982805	-0.07429508
23	0xbc25c6b8	-0.010118179
24	0xbd3dd52a	-0.046345867
25	0xbde887a4	-0.113539964
26	0x3ced2235	0.028946975
27	0x3d100def	0.035169538
28	0x3d16c3c9	0.03680781
29	0x3c59e3ae	0.013298912
30	0xbc5f00b0	-0.013611004
31	0x3de6f1f2	0.11276616
32	0xbdc83180	-0.097750664
33	0x3dd4a907	0.10383802
34	0xbd7034a4	-0.058643952
35	0x3c316d58	0.010829292
36	0xbd825e16	-0.06365602
37	0xbda3f9e3	-0.080066465
38	0x3d9bf005	0.076141395
39	0xbdc19a7a	-0.09453292
40	0x3dc5ab5c	0.09651825
41	0x3d273413	0.040821146
42	0x3d89d462	0.06729962
43	0x3de1875e	0.11012147
44	0x3df76f5f	0.12081789
45	0x3de32f8c	0.11093053
46	0x3c5a14ef	0.013310655
47	0xbda2342a	-0.07920106
48	0xbda22dde	-0.07918905
49	0x3dad20bf	0.084535114
50	0xbd8ade0a	-0.06780632
51	0xbd8cd699	-0.06876869
52	0xbd443082	-0.047897823
53	0xbdb1ef8a	-0.086882666
54	0x3dab3488	0.08359629
55	0x3dc2289a	0.094804004
56	0x3d83b68b	0.06431302
57	0xbdba8e15	-0.09109131
58	0x3c38b8e2	0.011274548
59	0x3ca4d79c	0.020122342
60	0x3c910fb0	0.017707676
61	0xbd548288	-0.051882297
62	0x3df0bee4	0.117551595
63	0xbd7f6956	-0.062356316
64	0xbddc5e44	-0.10760167
65	0xbc6fffab	-0.014648358

weight f4 [5, 72]
0	0xb8f25296	-0.00011554842
1	0xb82d5e94	-4.1334497e-05
2	0x390101ca	0.00012303065
3	0x382954cd	4.0371717e-05
4	0xb90655ac	-0.00012811151
5	0x38a408d6	7.821775e-05
6	0xb8de9ade	-0.00010614631
7	0x3501e086	4.838297e-07
8	0x38bde0ad	9.0540714e-05
9	0x38c9ba94	9.61918e-05
10	0x38acaafd	8.233448e-05
11	0xb686dd73	-4.0192913e-06
12	0x390360ba	0.00012529167
13	0xb6beaea7	-5.6827735e-06
14	0x3915b902	0.00014278668
15	0x37cd68e0	2.448674e-05
16	0xb7f668ff	-2.9374378e-05
17	0xb8c23dcf	-9.2621536e-05
18	0x3920498b	0.00015286186
19	0xb964a333	-0.00021804571
20	0xb776f668	-1.47201135e-05
21	0x39269270	0.00015885546
22	0xb8568d6d	-5.115329e-05
23	0xb925b696	-0.00015803645
24	0xb8efe449	-0.000114389295
25	0x391ff0ac	0.00015253079
26	0x37f7051b	2.9447072e-05
27	0xb7e66ae9	-2.746792e-05
28	0x37aa8dcb	2.0331607e-05
29	0xb81fdf31	-3.8116417e-05
30	0x36a771af	4.9902224e-06
31	0x38d9e5e3	0.00010390186
32	0x38a36df4	7.792926e-05
33	0xb7a6f6c1	-1.9903646e-05
34	0xb92cc5b1	-0.00016476844
35	0xb93737db	-0.00017473048
36	0x3910c11e	0.00013804852
37	0x38f907b7	0.00011874682
38	0xb908ce72	-0.00013046878
39	0xb6e74f3b	-6.89356e-06
40	0x38f5022b	0.00011682914
41	0x3922950e	0.00015505051
42	0xb83624dc	-4.342651e-05
43	0xb91df231	-0.0001506291
44	0xb8fbf8fe	-0.00012014991
45	0xb86e41fc	-5.6805075e-05
46	0x366d1518	3.532803e-06
47	0xb9658460	-0.00021888455
48	0x38a5cdbd	7.906135e-05
49	0x388b8f50	6.6547305e-05
50	0x37856d71	1.5905798e-05
51	0x383813e7	4.3887554e-05
52	0x385605a5	5.1026833e-05
53	0xb8622307	-5.391522e-05
54	0x389901bf	7.295934e-05
55	0xb78e4c98	-1.6963386e-05
56	0xb84e12db	-4.9131788e-05
57	0xb76d6eab	-1.4152068e-05
58	0x37d9c551	2.5960298e-05
59	0xb901c3ab	-0.0001237529
60	0x373e8d42	1.1357772e-05
61	0x38a180f9	7.701101e-05
62	0xb843abb3	-4.665153e-05
63	0x3896addd	7.184942e-05
64	0xb88c7b38	-6.6986715e-05
65	0xb7a72fd3	-1.9930221e-05
66	0xb79749df	-1.8035002e-05
67	0xb8be607f	-9.07788e-05
68	0x390942e4	0.00013090257
69	0x376c835a	1.4097279e-05
70	0xb8befd8c	-9.107133e-05
71	0x382a6f61	4.0634888e-05
72	0xb82fa89d	-4.1880285e-05
73	0x38e2af5c	0.00010809183
74	0xb93f3d41	-0.00018237998
75	0xb85d7fe2	-5.2809606e-05
76	0x38d254ce	0.000100293764
77	0xb866ea04	-5.5054217e-05
78	0xb8bb5649	-8.932927e-05
79	0xb7a7c5dc	-2.0000087e-05
80	0x36a15ade	4.8087522e-06
81	0xb9051835	-0.00012692886
82	0x37b592a1	2.164516e-05
83	0x37bf2908	2.2788081e-05
84	0xb9193561	-0.00014611102
85	0xb8f3c94f	-0.000116246396
86	0xb9313732	-0.00016900597
87	0x374796f6	1.1896473e-05
88	0xb87bccff	-6.003398e-05
89	0xb6ccc255	-6.102297e-06
90	0x38e6d098	0.00011006108
91	0xb821c279	-3.8566508e-05
92	0xb8606dab	-5.3507898e-05
93	0x3787f977	1.620942e-05
94	0xb920bfe5	-0.00015330275
95	0x37a4e308	1.9656043e-05
96	0xb9920237	-0.0002784894
97	0x37da133e	2.5996585e-05
98	0xb940cbb5	-0.00018386434
99	0xb8ccadbb	-9.759838e-05
100	0x39120c72	0.00013928281
101	0xb6bf6e40	-5.7050784e-06
102	0x36dc6437	6.5681775e-06
103	0xb8f1620f	-0.0001151004
104	0xb8b38b1c	-8.561296e-05
105	0xb8a23ed8	-7.7364675e-05
106	0xb908ce7e	-0.00013046895
107	0x384e73fc	4.9222246e-05
108	0x3879b2bb	5.9532682e-05
109	0xb86d8f08	-5.663841e-05
110	0x3899460d	7.3086565e-05
111	0x37c49816	2.3435841e-05
112	0x3904daaa	0.0001266996
113	0x37fe452d	3.0311372e-05
114	0xb8cf1bc1	-9.875699e-05
115	0xb8e61541	-0.000109712135
116	0x3796fb74	1.7998485e-05
117	0x371b6aae	9.263558e-06
118	0xb9245ead	-0.00015675528
119	0xb9169ef0	-0.00014364324
120	0xb8e97ae1	-0.00011133194
121	0x389275cb	6.983763e-05
122	0x38c3a2c5	9.328643e-05
123	0xb85c1544	-5.2471893e-05
124	0x3887f78c	6.483411e-05
125	0x3926288f	0.00015846103
126	0x395532da	0.00020332207
127	0x38c46629	9.365037e-05
128	0x37dd00e5	2.634567e-05
129	0xb89ab80a	-7.377572e-05
130	0x38a974d0	8.080306e-05
131	0xb61aa2d6	-2.3042571e-06
132	0xb7785e3b	-1.4803892e-05
133	0xb8f7e9e9	-0.00011821447
134	0x394a307d	0.00019282284
135	0x38b8df7a	8.8154295e-05
136	0x39335a20	0.00017104344
137	0x385a3cc3	5.203184e-05
138	0xb8e874b2	-0.00011084358
139	0xb80ed3c3	-3.4052657e-05
140	0x3842ca24	4.6441462e-05
141	0x3821e88d	3.860197e-05
142	0xb864c472	-5.454239e-05
143	0x388ac0d4	6.61627e-05
144	0xba853193	-0.0010161869
145	0xba7e123b	-0.00096920476
146	0xba8259e6	-0.0009945005
147	0x3a997c61	0.0011710041
148	0xba7b71e3	-0.00095918606
149	0x3a7685bd	0.0009404084
150	0x3a808b23	0.0009807091
151	0xba70fa90	-0.000919261
152	0xba9357be	-0.0011241359
153	0xba921f55	-0.0011148254
154	0x3a8add8e	0.0010594593
155	0xba89dd32	-0.0010518192
156	0xba638773	-0.00086795463
157	0x3a893976	0.0010469395
158	0x3a85fab3	0.0010221809
159	0x3a81df41	0.0009908454
160	0x3a7b6226	0.00095895154
161	0x3a8cfed3	0.0010757096
162	0xba6c4ed1	-0.000901443
163	0x3a879b69	0.0010345998
164	0x3a73e11a	0.0009303257
165	0x3a578921	0.0008222033
166	0x3a82d87f	0.0009982734
167	0x3a865e04	0.0010251408
168	0x3a85d2b8	0.0010209894
169	0x3a79bf26	0.00095270795
170	0x3a8cd40d	0.0010744348
171	0xba7fad27	-0.000975328
172	0xba8cdabe	-0.0010746343
173	0x3a893aaf	0.001046976
174	0xba6f7fa0	-0.0009136144
175	0xba8fe51d	-0.0010978315
176	0xba79c091	-0.0009527291
177	0x3a99f200	0.0011745095
178	0xba93f9a9	-0.0011289614
179	0xba7c0e37	-0.0009615155
180	0xba961ddb	-0.001145299
181	0xba7fecac	-0.0009762745
182	0xba8d2a16	-0.0010769989
183	0xba898b67	-0.0010493816
184	0x3a695bf8	0.0008901949
185	0x3a905e33	0.0011014402
186	0xba85b796	-0.0010201808
187	0x3a7f353c	0.00097354106
188	0x3a5dbab0	0.00084582996
189	0x3a916132	0.0011091589
190	0xba87590d	-0.0010326222
191	0x3a92d452	0.0011202192
192	0xba6d1f6d	-0.00090455153
193	0x3a6c8b0c	0.0009023405
194	0x3a911f95	0.0011072034
195	0xba6e1f36	-0.000908363
196	0x3a7be3fb	0.0009608862
197	0x3a81ce19	0.0009903341
198	0x3a7a935d	0.0009558702
199	0x3a8f9a17	0.0010955957
200	0x3aa27048	0.0012393082
201	0x3a6c4a97	0.00090138003
202	0x3a89f58b	0.0010525448
203	0x3a459b50	0.0007538097
204	0xba8960a7	-0.0010481075
205	0x3a686a4d	0.00088659377
206	0x3a94a870	0.0011341702
207	0x3a8124b8	0.0009852862
208	0x3a96c6de	0.0011503359
209	0x3a9b75eb	0.0011860704
210	0x3a901610	0.0010992903
211	0xba79e7d5	-0.0009533142
212	0x3a9395e2	0.0011259879
213	0x3a7d01e7	0.00096514676
214	0x3a612e57	0.0008589974
215	0x3a74946a	0.0009329977
216	0x384558ee	4.7051282e-05
217	0xb81e5077	-3.7745074e-05
218	0x389d2f18	7.495115e-05
219	0x35e4b59e	1.7040181e-06
220	0x37f1ca29	2.8823577e-05
221	0xb80e602a	-3.3944998e-05
222	0xb80de68d	-3.3831737e-05
223	0x37327f4c	1.0639265e-05
224	0x38967dc8	7.175986e-05
225	0x3933a418	0.000171319
226	0x37b0dbe9	2.1083239e-05
227	0xb699be8c	-4.581938e-06
228	0xb97bb876	-0.00024005942
229	0xb89fcc44	-7.619758e-05
230	0x369a99d8	4.6074674e-06
231	0xb87d4193	-6.038097e-05
232	0xb8a315ea	-7.7765275e-05
233	0x393fe225	0.00018299425
234	0x3861cdad	5.383573e-05
235	0x39007d0a	0.00012253612
236	0xb883a163	-6.2766274e-05
237	0xb630ba7b	-2.633459e-06
238	0x3708793f	8.1344615e-06
239	0xb8854498	-6.354711e-05
240	0x388b8fb6	6.654805e-05
241	0x380af1ee	3.312708e-05
242	0xb5c2859a	-1.449301e-06
243	0xb8d8b62e	-0.00010333616
244	0x38ce591c	9.8394434e-05
245	0x38d6ed9b	0.00010248573
246	0xb7cbb0e3	-2.4281855e-05
247	0xb715049b	-8.882164e-06
248	0xb82a79b6	-4.064451e-05
249	0xb7adf4d3	-2.0737212e-05
250	0x38ecd16d	0.000112923655
251	0xb8e777af	-0.00011037231
252	0xb8ed16ac	-0.000113052636
253	0x38e829e8	0.00011070428
254	0x37b518f5	2.1588503e-05
255	0xb98c9c68	-0.00026819413

bias f4 [5]
0	0xbd8c6dd7	-0.06856888
1	0xbd88997b	-0.06669899
2	0x3d888c59	0.06667394
3	0xbdc1e7af	-0.09468018
4	0x3c7aa38a	0.01529778

W_Query f4 [4, 4]
0	0x3d49fde3	0.04931439
1	0xbd65fded	-0.056150366
2	0xbe0d3bf1	-0.13792397
3	0x3c02a7ff	0.007974624
4	0x3ab13bf9	0.0013521902
5	0x3da2a8c0	0.07942343
6	0x3c25b038	0.010112815
7	0x3ce69058	0.028145
8	0xbc961be3	-0.018323844
9	0xbbc308f3	-0.0059519946
10	0x3c9c11f0	0.019051522
11	0xbd92c9b8	-0.07167381
12	0x3c0a608f	0.008445873
13	0x3d618898	0.055061907
14	0xbd31bc7a	-0.043392636
15	0x3c7ab810	0.015302673

W_key f4 [4, 4]
0	0x3d565b7b	0.052333336
1	0xbca04cff	-0.019567965
2	0x3c41978a	0.011815915
3	0x3d26324c	0.04057531
4	0xb9effcff	-0.0004577413
5	0xbb20d35f	-0.002454005
6	0x3a6f0d08	0.0009119068
7	0xbd1519a1	-0.036401395
8	0xbcdbe885	-0.026844272
9	0xbd8dff97	-0.069335155
10	0x3afcb891	0.0019281079
11	0x3da8b1e5	0.08237056
12	0x3d047554	0.032338455
13	0xbd652b95	-0.055949766
14	0xbd8cf3e5	-0.06882457
15	0x3d038562	0.032109626

W_Value f4 [4, 4]
0	0xbceae9ef	-0.028676001
1	0x3b0d7ea8	0.0021590386
2	0xbd45482b	-0.048164528
3	0x3d7bdaf0	0.061488092
4	0x3d384298	0.044985384
5	0x3ccf73ff	0.025323866
6	0x3d1d6724	0.03842844
7	0x3deace3d	0.11465118
8	0xbd54878f	-0.05188709
9	0x3b4dbe96	0.0031394116
10	0xbc49fcf2	-0.012328373
11	0xbd5a5af2	-0.05330939
12	0xbd0fc143	-0.035096418
13	0x3d5d5f65	0.054046053
14	0xbc83a4a5	-0.01606972
15	0xbb63968a	-0.003472718

W_Res f4 [4, 4]
0	0xbe06319e	-0.13104865
1	0x3d7724e8	0.06033793
2	0xbd870595	-0.065928616
3	0xbddcd071	-0.107819445
4	0xbda515c3	-0.08060791
5	0x3ca0409f	0.019562064
6	0x3b77911c	0.00377757
7	0xbd1b0fe6	-0.03785696
8	0xbd720bfe	-0.059093468
9	0x3d383d0a	0.044980086
10	0x3c2474fc	0.010037657
11	0x3ca3a516	0.01997618
12	0xbe0cc400	-0.13746643
13	0x3c555b04	0.013022188
14	0xbd249d67	-0.040189173
15	0x3d41e0b1	0.047333423

normalized_att_scores f4 [2, 32, 15, 15]
0	0x3d888888	0.06666666
1	0x3d888889	0.06666667
2	0x3d888888	0.06666666
3	0x3d888889	0.06666667
4	0x3d888889	0.06666667
5	0x3d888888	0.06666666
6	0x3d888889	0.06666667
7	0x3d888889	0.06666667
8	0x3d888888	0.06666666
9	0x3d888888	0.06666666
10	0x3d888888	0.06666666
11	0x3d888889	0.06666667
12	0x3d888887	0.066666655
13	0x3d888888	0.06666666
14	0x3d888888	0.06666666
15	0x3d888889	0.06666667
16	0x3d888889	0.06666667
17	0x3d888889	0.06666667
18	0x3d888889	0.06666667
19	0x3d888889	0.06666667
20	0x3d888889	0.06666667
21	0x3d888889	0.06666667
22	0x3d888889	0.06666667
23	0x3d888888	0.06666666
24	0x3d888888	0.06666666
25	0x3d888888	0.06666666
26	0x3d888889	0.06666667
27	0x3d888888	0.06666666
28	0x3d888889	0.06666667
29	0x3d888888	0.06666666
30	0x3d888888	0.06666666
31	0x3d888889	0.06666667
32	0x3d888888	0.06666666
33	0x3d888889	0.06666667
34	0x3d888889	0.06666667
35	0x3d888888	0.06666666
36	0x3d888889	0.06666667
37	0x3d888889	0.06666667
38	0x3d888888	0.06666666
39	0x3d888888	0.06666666
40	0x3d888888	0.06666666
41	0x3d888889	0.06666667
42	0x3d888887	0.066666655
43	0x3d888888	0.06666666
44	0x3d888888	0.06666666
45	0x3d888888	0.06666666
46	0x3d888888	0.06666666
47	0x3d888888	0.06666666
48	0x3d888888	0.06666666
49	0x3d888888	0.06666666
50	0x3d888888	0.06666666
51	0x3d888888	0.06666666
52	0x3d888888	0.06666666
53	0x3d888888	0.06666666
54	0x3d888888	0.06666666
55	0x3d888888	0.06666666
56	0x3d888888	0.06666666
57	0x3d888889	0.06666667
58	0x3d888888	0.06666666
59	0x3d888888	0.06666666
60	0x3d888888	0.06666666
61	0x3d888888	0.06666666
62	0x3d888888	0.06666666
63	0x3d888888	0.06666666
64	0x3d888888	0.06666666
65	0x3d888888	0.06666666
66	0x3d888888	0.06666666
67	0x3d888888	0.06666666
68	0x3d888888	0.06666666
69	0x3d888888	0.06666666
70	0x3d888888	0.06666666
71	0x3d888888	0.06666666
72	0x3d888889	0.06666667
73	0x3d888888	0.06666666
74	0x3d888888	0.06666666
75	0x3d888888	0.06666666
76	0x3d888888	0.06666666
77	0x3d888888	0.06666666
78	0x3d888888	0.06666666
79	0x3d888888	0.06666666
80	0x3d888888	0.06666666
81	0x3d888888	0.06666666
82	0x3d888888	0.06666666
83	0x3d888888	0.06666666
84	0x3d888888	0.06666666
85	0x3d888888	0.06666666
86	0x3d888888	0.06666666
87	0x3d888889	0.06666667
88	0x3d888888	0.06666666
89	0x3d888888	0.06666666
90	0x3d888889	0.06666667
91	0x3d888889	0.06666667
92	0x3d888889	0.06666667
93	0x3d888889	0.06666667
94	0x3d888889	0.06666667
95	0x3d888889	0.06666667
96	0x3d888889	0.06666667
97	0x3d888889	0.06666667
98	0x3d888889	0.06666667
99	0x3d888889	0.06666667
100	0x3d888889	0.06666667
101	0x3d888889	0.06666667
102	0x3d888888	0.06666666
103	0x3d888889	0.06666667
104	0x3d888889	0.06666667
105	0x3d888888	0.06666666
106	0x3d888888	0.06666666
107	0x3d888888	0.06666666
108	0x3d888888	0.06666666
109	0x3d888888	0.06666666
110	0x3d888888	0.06666666
111	0x3d888888	0.06666666
112	0x3d888888	0.06666666
113	0x3d888888	0.06666666
114	0x3d888888	0.06666666
115	0x3d888888	0.06666666
116	0x3d888888	0.06666666
117	0x3d888889	0.06666667
118	0x3d888888	0.06666666
119	0x3d888888	0.06666666
120	0x3d888889	0.06666667
121	0x3d888889	0.06666667
122	0x3d888889	0.06666667
123	0x3d888889	0.06666667
124	0x3d888889	0.06666667
125	0x3d888889	0.06666667
126	0x3d888889	0.06666667
127	0x3d888889	0.06666667
128	0x3d888889	0.06666667
129	0x3d888889	0.06666667
130	0x3d888889	0.06666667
131	0x3d888889	0.06666667
132	0x3d888888	0.06666666
133	0x3d888889	0.06666667
134	0x3d888889	0.06666667
135	0x3d888889	0.06666667
136	0x3d888889	0.06666667
137	0x3d888889	0.06666667
138	0x3d888889	0.06666667
139	0x3d888889	0.06666667
140	0x3d888889	0.06666667
141	0x3d888889	0.06666667
142	0x3d888889	0.06666667
143	0x3d888889	0.06666667
144	0x3d888889	0.06666667
145	0x3d888889	0.06666667
146	0x3d888889	0.06666667
147	0x3d888888	0.06666666
148	0x3d888889	0.06666667
149	0x3d888889	0.06666667
150	0x3d888889	0.06666667
151	0x3d888889	0.06666667
152	0x3d888889	0.06666667
153	0x3d888889	0.06666667
154	0x3d888889	0.06666667
155	0x3d888889	0.06666667
156	0x3d888889	0.06666667
157	0x3d888889	0.06666667
158	0x3d888889	0.06666667
159	0x3d888889	0.06666667
160	0x3d888889	0.06666667
161	0x3d888889	0.06666667
162	0x3d888888	0.06666666
163	0x3d888889	0.06666667
164	0x3d888889	0.06666667
165	0x3d888888	0.06666666
166	0x3d888888	0.06666666
167	0x3d888888	0.06666666
168	0x3d888888	0.06666666
169	0x3d888888	0.06666666
170	0x3d888888	0.06666666
171	0x3d888888	0.06666666
172	0x3d888888	0.06666666
173	0x3d888888	0.06666666
174	0x3d888888	0.06666666
175	0x3d888888	0.06666666
176	0x3d888888	0.06666666
177	0x3d888889	0.06666667
178	0x3d888888	0.06666666
179	0x3d888888	0.06666666
180	0x3d888889	0.06666667
181	0x3d88888a	0.06666668
182	0x3d888889	0.06666667
183	0x3d88888a	0.06666668
184	0x3d888889	0.06666667
185	0x3d88888a	0.06666668
186	0x3d888889	0.06666667
187	0x3d88888a	0.06666668
188	0x3d888889	0.06666667
189	0x3d888889	0.06666667
190	0x3d888889	0.06666667
191	0x3d88888a	0.06666668
192	0x3d888887	0.066666655
193	0x3d888889	0.06666667
194	0x3d888889	0.06666667
195	0x3d888889	0.06666667
196	0x3d888889	0.06666667
197	0x3d888889	0.06666667
198	0x3d888889	0.06666667
199	0x3d888889	0.06666667
200	0x3d888889	0.06666667
201	0x3d888889	0.06666667
202	0x3d888889	0.06666667
203	0x3d888889	0.06666667
204	0x3d888889	0.06666667
205	0x3d888889	0.06666667
206	0x3d888889	0.06666667
207	0x3d888889	0.06666667
208	0x3d888889	0.06666667
209	0x3d888889	0.06666667
210	0x3d888889	0.06666667
211	0x3d888889	0.06666667
212	0x3d888889	0.06666667
213	0x3d888889	0.06666667
214	0x3d888889	0.06666667
215	0x3d888889	0.06666667
216	0x3d888889	0.06666667
217	0x3d888889	0.06666667
218	0x3d888889	0.06666667
219	0x3d888889	0.06666667
220	0x3d888889	0.06666667
221	0x3d888889	0.06666667
222	0x3d888888	0.06666666
223	0x3d888889	0.06666667
224	0x3d888889	0.06666667
225	0x3d888888	0.06666666
226	0x3d888889	0.06666667
227	0x3d888888	0.06666666
228	0x3d888889	0.06666667
229	0x3d888888	0.06666666
230	0x3d888888	0.06666666
231	0x3d888888	0.06666666
232	0x3d888888	0.06666666
233	0x3d888888	0.06666666
234	0x3d888889	0.06666667
235	0x3d888888	0.06666666
236	0x3d888889	0.06666667
237	0x3d888888	0.06666666
238	0x3d888889	0.06666667
239	0x3d888888	0.06666666
240	0x3d888889	0.06666667
241	0x3d888889	0.06666667
242	0x3d888888	0.06666666
243	0x3d888889	0.06666667
244	0x3d888888	0.06666666
245	0x3d888889	0.06666667
246	0x3d888889	0.06666667
247	0x3d888889	0.06666667
248	0x3d888888	0.06666666
249	0x3d888889	0.06666667
250	0x3d888888	0.06666666
251	0x3d888889	0.06666667
252	0x3d888888	0.06666666
253	0x3d888889	0.06666667
254	0x3d888889	0.06666667
255	0x3d888889	0.06666667

weight f4 [8, 1, 3, 3]
0	0x3ea8b51b	0.32950673
1	0xbd507361	-0.050891284
2	0xbea8c38d	-0.32961693
3	0xbe75141b	-0.23933451
4	0xbd91ae54	-0.071133286
5	0x3e80d7bc	0.25164592
6	0xbe49f941	-0.19723989
7	0xbe38e081	-0.18054391
8	0xbe16a734	-0.1471222
9	0x3e803b4a	0.25045234
10	0xbea60877	-0.32428333
11	0x3c9b5301	0.018960478
12	0xbc98b0cc	-0.01863899
13	0xbe658cae	-0.22416946
14	0x3ea3e79b	0.32012638
15	0x3e949a66	0.29024047
16	0x3e8d5b29	0.27608612
17	0xbdff6da0	-0.12472081
18	0x3e269ba5	0.16270311
19	0xbd3b1508	-0.045674354
20	0xbc8a97b4	-0.01691804
21	0xbe6259fa	-0.22104636
22	0x3e6b0205	0.22949989
23	0x3d7b6e96	0.06138476
24	0x3db568c6	0.088578746
25	0xbe7149a5	-0.2356325
26	0xbea81b9e	-0.3283357
27	0x3e34c05e	0.17651507
28	0xbe12ff7c	-0.14355272
29	0x3e160d04	0.14653403
30	0xbe06be08	-0.13158429
31	0x3e98c5a6	0.29838294
32	0x3e24fda7	0.16112386
33	0x3e8da846	0.27667445
34	0xbe46791f	-0.19382142
35	0x3ea85fb2	0.3288551
36	0x3e52fa21	0.20603229
37	0x3d5f2c99	0.05448589
38	0xbdb1f7b6	-0.08689825
39	0xbe04c61c	-0.12966198
40	0x3d67eb5f	0.05662095
41	0xbdd96482	-0.106148735
42	0x3e537fa4	0.2065416
43	0xbe4f73a2	-0.20258954
44	0xbe067a47	-0.13132583
45	0xbe199104	-0.14996725
46	0x3e48eaf2	0.19620875
47	0x3e5531a2	0.20819715
48	0x3e2e1152	0.16998795
49	0x3d671ff4	0.056426957
50	0x3e55509b	0.2083153
51	0x3d34bf9e	0.044128053
52	0xbd1aaaad	-0.037760425
53	0x3e0fcc98	0.1404289
54	0xbe7934af	-0.24336503
55	0xbdd52049	-0.104065485
56	0xbd87ff5f	-0.06640505
57	0xbe41e597	-0.18935238
58	0xbe4f8c43	-0.2026835
59	0x3ea71dc5	0.326399
60	0x3d09177a	0.033469655
61	0x3e067e9f	0.1313424
62	0x3e11db14	0.14243728
63	0xbe77dd51	-0.2420552
64	0xbdbf5044	-0.09341481
65	0xbe04200c	-0.1290285
66	0xbce56941	-0.02800429
67	0xbe795e40	-0.2435236
68	0xbe6b3ce8	-0.22972453
69	0xbda55df9	-0.080745645
70	0xbd7987be	-0.06092047
71	0xbd51e4ca	-0.05124358

bias f4 [8]
0	0x3ea2dc1a	0.3180855
1	0x3e9974c2	0.29971892
2	0x3e7ff75e	0.24996707
3	0x3e113b51	0.14182784
4	0xbdd65f41	-0.10467387
5	0x3c46b612	0.01212837
6	0xbd27464e	-0.040838532
7	0x3e58dfa3	0.2117906

weight f4 [8, 1, 3, 3]
0	0xbb792112	-0.0038014096
1	0x3e4ea106	0.20178613
2	0x3e887b08	0.26656365
3	0x3e4fa49e	0.2027764
4	0xbe36e082	-0.1785908
5	0x3ea65d16	0.32492894
6	0xbe6f0771	-0.23342682
7	0x3e9e9741	0.30974773
8	0xbe095650	-0.13411832
9	0x3e9534bf	0.29141805
10	0x3e6948d6	0.22781691
11	0x3df5a067	0.11993485
12	0xbe2194b9	-0.1577939
13	0xbe6fd362	-0.2342048
14	0xbe551d87	-0.20812045
15	0x3c760048	0.0150147155
16	0x3df1bc32	0.118034735
17	0x3e2c1442	0.16804603
18	0xbdd8bd71	-0.10583008
19	0x3e81adaa	0.25327808
20	0x3c0d02e2	0.008606644
21	0x3ce3168a	0.027720708
22	0x3d32aa7a	0.04361961
23	0xbdb2bb8f	-0.0872718
24	0x3e4f15f9	0.20223226
25	0x3a661a0c	0.0008777685
26	0xbe905b9c	-0.28194892
27	0xbdcfbc37	-0.10143321
28	0xbc934005	-0.017974863
29	0xbea3a13a	-0.31958944
30	0xbe9e81f3	-0.30958518
31	0x3e3dbc26	0.18528804
32	0x3e20eda3	0.15715651
33	0xbea67de7	-0.3251793
34	0xbe287501	-0.16450883
35	0x3e8687b1	0.262754
36	0x3e8b0488	0.27151895
37	0x3dc7a77d	0.09748743
38	0x3ddc8b17	0.10768717
39	0x3d9da8e4	0.07698229
40	0x3ea18a63	0.31550893
41	0xbe54afa5	-0.20770128
42	0xbddd89ca	-0.10817297
43	0xbdb7fcf1	-0.089837916
44	0xbe4db498	-0.20088422
45	0xbe3233dd	-0.17402597
46	0xbc2edfef	-0.010673507
47	0xbdeb3720	-0.11485124
48	0x3d151310	0.036395133
49	0x3e3f6669	0.1869141
50	0x3e5d5f57	0.216184
51	0xbceaedc9	-0.028677838
52	0xbe607c18	-0.21922338
53	0x3e4e64b4	0.20155603
54	0xbe482799	-0.19546355
55	0x3e6ecf04	0.23321158
56	0xbe3b3b48	-0.18284333
57	0x3d0d010a	0.03442482
58	0xbe803607	-0.2504122
59	0xbea7af27	-0.32750818
60	0x3e8ff49a	0.28116304
61	0x3e00bd73	0.12572269
62	0xbb174c03	-0.0023086078
63	0x3e702409	0.23451246
64	0x3ea68f00	0.32530975
65	0x3ea41d28	0.32053494
66	0xbe705ee9	-0.23473705
67	0xbe9bc090	-0.3042035
68	0x3e94bfbf	0.2905254
69	0x3e3f4080	0.18676949
70	0x3db243a3	0.08704307
71	0xbc5e9c2e	-0.013587041

bias f4 [8]
0	0x3d762664	0.060095206
1	0x3e0f7661	0.14010002
2	0xbe294b40	-0.16532612
3	0xbe992b85	-0.29916015
4	0x3e653ac6	0.22385702
5	0xbe75d705	-0.24007805
6	0x3d0978b6	0.033562385
7	0x3ea38637	0.31938335

weight f4 [8, 1, 3, 3]
0	0x3e31797b	0.17331497
1	0x3df11fea	0.11773665
2	0xbe67e054	-0.22644168
3	0xbe6f6ee3	-0.23382144
4	0x3e848a04	0.25886548
5	0xbe18cd18	-0.14921987
6	0xbd85ef40	-0.06539774
7	0xbc42214b	-0.011848758
8	0x3e88672b	0.2664121
9	0xbe907650	-0.28215265
10	0xbe5b5a3d	-0.21421142
11	0x3e683c0e	0.22679159
12	0xbcadc3f7	-0.021211607
13	0xbc3a5552	-0.011372881
14	0x3bde1ec8	0.0067785718
15	0xbbd74b3e	-0.006570249
16	0x3e797c54	0.24363834
17	0xbea479a5	-0.32124057
18	0xbe74523a	-0.23859492
19	0x3e1849e6	0.1487194
20	0xbe8eae19	-0.278672
21	0x3e94c025	0.29052845
22	0xbe1b951e	-0.15193602
23	0x3e44f788	0.1923505
24	0xbe1cf299	-0.15326919
25	0x3e3ff672	0.18746355
26	0xbc551ef1	-0.013007865
27	0x3e8d0361	0.2754164
28	0xbe52538d	-0.20539685
29	0x3e472028	0.1944586
30	0xbd225646	-0.039633058
31	0xbe73811e	-0.23779723
32	0x3e3eb7ad	0.18624754
33	0xbe2b2b63	-0.1671577
34	0xbe80ddfc	-0.2516936
35	0x3e295ac0	0.16538525
36	0xbe22fbc8	-0.1591636
37	0x3e89e81a	0.26934892
38	0xbe9e9856	-0.30975598
39	0x3e95806c	0.2919954
40	0xbe6be14b	-0.23035161
41	0x3ea43a96	0.32075948
42	0x3e1ac810	0.1511538
43	0x3e6f1c00	0.23350525
44	0x3e84dd16	0.25949925
45	0x3e1fc520	0.15602541
46	0x3d226fc1	0.039657358
47	0xbc8beac0	-0.017079711
48	0x3e284dd3	0.16435938
49	0x3da21737	0.07914584
50	0xbe78344d	-0.24238701
51	0x3e517989	0.20456518
52	0xbe9c08b7	-0.304754
53	0xbe937a01	-0.2880402
54	0x3e5394a0	0.20662165
55	0xbe52d8e3	-0.20590548
56	0x3d915ea8	0.07098132
57	0xbe05c992	-0.13065174
58	0x3ced3c27	0.028959347
59	0xbdfd854f	-0.12378942
60	0xbe87f0cb	-0.26550898
61	0x3d8b5cf7	0.06804841
62	0xbe12dad8	-0.14341295
63	0x3dfa1372	0.1221074
64	0xbcd6d25c	-0.026223354
65	0xbe886369	-0.26638344
66	0x3e385c6d	0.18004008
67	0x3dc83fd4	0.09777799
68	0xbe74804f	-0.23877071
69	0x3cc30fe9	0.023811297
70	0xbea3734d	-0.31923905
71	0x3e6411b0	0.22272372

bias f4 [8]
0	0x3e2a8980	0.16654015
1	0xbe5e0511	-0.2168162
2	0xbd966a00	-0.07344437
3	0x3e47ae87	0.1950017
4	0x3da72801	0.08161927
5	0x3ea978aa	0.33099872
6	0x3e7644c1	0.24049665
7	0xbe9a4706	-0.30132312

weight f4 [8, 1, 3, 3]
0	0xbea8fc8a	-0.33005172
1	0x3ea5017e	0.322277
2	0x3d37230b	0.044711154
3	0xbe242ac8	-0.16031945
4	0xbe684306	-0.22681817
5	0xbde12f58	-0.10995358
6	0x3e997fc7	0.299803
7	0x3c8c4198	0.017121121
8	0xbd5dc58a	-0.054143466
9	0x3e3da768	0.18520892
10	0xbea92682	-0.33037192
11	0xbe9e897e	-0.30964273
12	0xbdaa2f61	-0.08309818
13	0x3e79f949	0.24411501
14	0xbdfe825a	-0.12427206
15	0xbe65ee87	-0.22454272
16	0xbe6f42de	-0.23365352
17	0xbc3d4062	-0.011550995
18	0x3eaa28b7	0.33234188
19	0xbe30f529	-0.17281021
20	0xbe13f41e	-0.14448592
21	0xbe59b214	-0.21259338
22	0x3e1cdc44	0.153184
23	0xbe1f24d6	-0.15541396
24	0x3cf85ad3	0.030316746
25	0xbe434375	-0.19068702
26	0x3e6ce944	0.23135859
27	0x3e1dea13	0.15421323
28	0xbea83c63	-0.3285857
29	0x3e86517e	0.2623405
30	0xbe10476f	-0.1408975
31	0xbdde8f25	-0.108671464
32	0x3e89ff22	0.26952463
33	0xbd5fcb2b	-0.054637115
34	0xbe30de7b	-0.1727237
35	0x3c38e7d9	0.011285746
36	0x3d6f71d9	0.058458183
37	0xbd78d72e	-0.060752086
38	0xbe83c3a3	-0.25735196
39	0xbe12a9c5	-0.14322574
40	0x3d9003fc	0.0703201
41	0x3c47610a	0.012169132
42	0x3e7ddb08	0.24790585
43	0x3e45fc68	0.19334567
44	0xbdeb6d67	-0.11495476
45	0x3e4cd187	0.20001803
46	0xbe368ea1	-0.17827846
47	0xbd10055f	-0.035161372
48	0x3e5798d0	0.21054387
49	0xbe50ea01	-0.20401765
50	0xbe3ad7ba	-0.18246356
51	0xbdcb6030	-0.09930456
52	0xbe605db2	-0.21910742
53	0xbd7106bf	-0.058844324
54	0xbe2681af	-0.16260408
55	0x3dea27a5	0.11433343
56	0x3e876775	0.2644612
57	0x3e649691	0.22323062
58	0xbca54823	-0.020175999
59	0xbe93652a	-0.2878812
60	0x3e520c8a	0.20512596
61	0x3e23e884	0.16006666
62	0x3dea4a3f	0.114399426
63	0xbe933b8b	-0.28756365
64	0x3d9dd737	0.077070646
65	0xbe9003e5	-0.2812797
66	0xbc441afe	-0.011969326
67	0x3e49d602	0.19710544
68	0xbea59701	-0.3234177
69	0xbd05fd63	-0.03271235
70	0x3e9ce34b	0.3064216
71	0xbe99525c	-0.29945648

bias f4 [8]
0	0xbd44db7e	-0.048060887
1	0xbe3cb42e	-0.18428108
2	0xbd5c5c92	-0.05379922
3	0x3e371a36	0.17881092
4	0xbdd5fded	-0.10448823
5	0x3bbb01a7	0.005706984
6	0xbe8a1214	-0.26966918
7	0xbcbf0ddd	-0.02332204

weight f4 [8, 1, 3, 3]
0	0x3d49de5b	0.04928432
1	0xbe9e942c	-0.3097242
2	0xbde8079a	-0.11329575
3	0x3e574488	0.21022236
4	0x3da97df1	0.082759745
5	0xbd4822b3	-0.048861217
6	0x3e046e6e	0.1293275
7	0x3d632849	0.05545834
8	0x3e84fa73	0.25972328
9	0x3e4873fd	0.19575496
10	0xbde5461c	-0.11195013
11	0xbc0b1189	-0.008488067
12	0x3e48a07e	0.19592473
13	0x3df4d609	0.119548865
14	0x3e9fcb47	0.31209776
15	0x3dbffd25	0.09374455
16	0x3dd05387	0.101721816
17	0xbe727d15	-0.23680528
18	0x3e9f1260	0.31068707
19	0x3e88253e	0.26590914
20	0x3d4576be	0.048208944
21	0xbd9d7d48	-0.07689911
22	0x3ca32e70	0.019919604
23	0x3e490be3	0.1963344
24	0xbdbd7e81	-0.09252644
25	0x3e91ae20	0.2845316
26	0xbea00dd8	-0.31260562
27	0x3e55e2f5	0.20887358
28	0xbe7dc8d6	-0.24783644
29	0x3e88f4ed	0.26749364
30	0x3c88471f	0.016635476
31	0xbe7785e8	-0.24172175
32	0xbdbf4a4f	-0.09340345
33	0xbdff2325	-0.12457875
34	0xbd9f9911	-0.07792867
35	0xbe8bb282	-0.27284628
36	0xbbe1db0c	-0.0068925675
37	0x3e437959	0.19089259
38	0xbdbe51a8	-0.092929184
39	0x3d31bc80	0.04339266
40	0x3df33069	0.11874468
41	0xbe90ff91	-0.28319982
42	0xbddccad6	-0.107808754
43	0xbe4dd64e	-0.20101282
44	0x3e11a04b	0.14221303
45	0x3e1eed95	0.15520318
46	0xbd871666	-0.06596069
47	0x3ccbdf5c	0.02488678
48	0xbe920b18	-0.2852409
49	0x3df4e7bf	0.119582646
50	0x3e430cc4	0.19047838
51	0xbd0ed2a2	-0.034868844
52	0xbe5fe4a0	-0.21864557
53	0x3ea13662	0.31486803
54	0x3cd53f6d	0.02603122
55	0x3e844650	0.25834894
56	0x3d046a22	0.03232778
57	0xbd113e88	-0.035460025
58	0xbe0db89c	-0.13839954
59	0x3e9639da	0.29341012
60	0x3e8861f7	0.2663724
61	0xbdc6599f	-0.096850626
62	0x3e32ec8e	0.17473051
63	0xbd49d7a1	-0.049277905
64	0x3e977d00	0.29587555
65	0xbe4e7a90	-0.20163941
66	0x3ea49638	0.32145858
67	0xbd9a2adc	-0.07527706
68	0x3df5a194	0.11993709
69	0xbe2da69d	-0.16958089
70	0xbe480c06	-0.19535837
71	0xbd6bad70	-0.05753845

bias f4 [8]
0	0xbc8f91ab	-0.017525515
1	0x3d0deb3a	0.034648158
2	0x3d1bc4c2	0.03802944
3	0xbde1678e	-0.110060796
4	0xbd1dec64	-0.038555518
5	0xbd86936e	-0.06571089
6	0xbd486eb2	-0.048933692
7	0x3e314574	0.1731165

weight f4 [8, 1, 3, 3]
0	0x3c9c5bb8	0.019086704
1	0x3e58cbf0	0.21171546
2	0x3e02282c	0.12710637
3	0xbe646e6d	-0.22307749
4	0x3e36ada8	0.17839682
5	0xbd4dd55d	-0.050252307
6	0x3e5c3102	0.2150307
7	0x3e984e66	0.29747313
8	0xbe612946	-0.21988401
9	0xbe2b043d	-0.16700836
10	0xbe18870d	-0.14895268
11	0x3e61ff74	0.22070104
12	0xbe6d71f3	-0.23188
13	0x3d4175e2	0.047231562
14	0xbe1307e9	-0.14358486
15	0x3e5480d7	0.20752273
16	0xbe8eaa81	-0.2786446
17	0xbe6ac48d	-0.2292654
18	0x3e99748b	0.29971728
19	0xbde5b645	-0.11216406
20	0xbe8aaa33	-0.27082977
21	0x3e57cb6d	0.21073695
22	0xbea13420	-0.3148508
23	0x3e90085e	0.28131384
24	0xbdd5a977	-0.104327135
25	0x3e208a34	0.1567772
26	0xbe2f563c	-0.1712274
27	0xbe8c7e54	-0.2744013
28	0xbca1a59d	-0.01973229
29	0xbdb327c5	-0.0874782
30	0xbd3ad820	-0.04561627
31	0x3e4bf6fa	0.19918433
32	0xbe87bbee	-0.26510566
33	0xbe605e73	-0.2191103
34	0x3d002c5b	0.0312923
35	0xbe10e1f8	-0.141487
36	0xbe872872	-0.26398045
37	0xbe8dde15	-0.27708498
38	0x3e44ea14	0.19229919
39	0xbe0c827a	-0.13721648
40	0xbe350108	-0.17676175
41	0x3de46fe8	0.11154157
42	0xbe0f9265	-0.14020689
43	0x3e954e36	0.29161233
44	0x3e7c104d	0.24615593
45	0x3deda225	0.11603192
46	0xbd9b1ead	-0.0757421
47	0x3e62c664	0.22145993
48	0xbe1e084a	-0.1543285
49	0xbe8c4bea	-0.27401668
50	0xbccd4102	-0.025055412
51	0xbe3fb2ed	-0.18720599
52	0x3e7ff021	0.24993946
53	0xbe32610f	-0.17419837
54	0xbe050a3c	-0.12992185
55	0x3ea51601	0.3224335
56	0xbe70bfde	-0.23510692
57	0x3ea5a029	0.32348755
58	0x3d3b5606	0.045736335
59	0xbe430402	-0.19044498
60	0x3e29c09e	0.16577384
61	0xbe6931f2	-0.22772959
62	0x3c9164b8	0.017748222
63	0x3de0a695	0.10969273
64	0xbd4cfc8c	-0.050045535
65	0xbe1cbcb3	-0.15306358
66	0xbe904e3a	-0.28184682
67	0xbdfe90ec	-0.124299854
68	0xbe72a924	-0.23697335
69	0x3e2f651e	0.17128417
70	0x3d1e2ddc	0.038617954
71	0xbe967f65	-0.2939407

bias f4 [8]
0	0x3e13c203	0.14429478
1	0xbea6a837	-0.32550213
2	0x3e33dfea	0.17565885
3	0xbea88717	-0.32915565
4	0xbe9a2413	-0.30105647
5	0x3e65bca6	0.22435245
6	0x3e2d066c	0.16896981
7	0xbea46320	-0.32106876

weight f4 [8, 1, 3, 3]
0	0xbe8361e5	-0.25660625
1	0x3e41bc05	0.1891938
2	0xbe82a8bc	-0.2551936
3	0xbe964d6f	-0.29355952
4	0x3e82ef54	0.25573218
5	0x3d8eefb1	0.06979311
6	0xbd6aa6c2	-0.05728794
7	0x3d1915fb	0.037374478
8	0x3e382393	0.1798232
9	0xbe4fb627	-0.2028433
10	0x3dbbb051	0.09164489
11	0x3d99bce3	0.075067304
12	0xbe289729	-0.16463913
13	0x3e873baa	0.26412708
14	0xbe689320	-0.22712374
15	0xbe9a95a7	-0.301923
16	0xbe5768bb	-0.21036045
17	0xbea864c0	-0.32889366
18	0xbea3890d	-0.319405
19	0xbd26f389	-0.040759597
20	0xbd7dabe0	-0.06193149
21	0x3d85070d	0.064954855
22	0x3e691d65	0.2276512
23	0xbc98e03c	-0.01866161
24	0xbe35feb2	-0.1777294
25	0xbd601022	-0.054702885
26	0x3e25fee1	0.1621051
27	0x3d639e72	0.055571027
28	0xbda1c484	-0.078988105
29	0xbdee4617	-0.11634462
30	0xbe6accdb	-0.22929709
31	0xbe2ca2cc	-0.16858977
32	0xbe6481df	-0.22315167
33	0xbdc10cd9	-0.094262786
34	0x3d4de206	0.05026438
35	0x3dd1193f	0.102098934
36	0xbe9ff2df	-0.31239983
37	0x3e405b16	0.18784747
38	0x3da4f10b	0.08053788
39	0xbe7f5989	-0.24936499
40	0x3e21f968	0.15817797
41	0xbe6ffe39	-0.23436822
42	0xbe96bb84	-0.29439938
43	0xbe14fe1f	-0.14550065
44	0xbe944997	-0.28962395
45	0xbea9a358	-0.33132434
46	0x3cb76513	0.022387063
47	0xbe4b691c	-0.19864315
48	0x3e6b813b	0.22998516
49	0xbdbdadbf	-0.09261655
50	0xbdc9836b	-0.09839519
51	0xbea9157c	-0.33024204
52	0xbde15204	-0.11001971
53	0x3dc0e645	0.094189204
54	0x3e6ba582	0.23012355
55	0xbd70c41b	-0.05878077
56	0xbe658b0d	-0.22416325
57	0x3ea02ab7	0.3128259
58	0xbc1e5a56	-0.009665092
59	0x3d9357dc	0.07194492
60	0x3d8258cd	0.06364594
61	0x3e8aef5e	0.27135748
62	0xbe42a5cb	-0.19008557
63	0x3d88f7c8	0.066878855
64	0x3e2cedc5	0.16887577
65	0xbcde1b8f	-0.02711275
66	0xbe79e444	-0.24403483
67	0x3dc9f03c	0.09860274
68	0xbe5de0e8	-0.21667826
69	0xbc9bd916	-0.019024413
70	0xbd00d065	-0.03144874
71	0x3e452d58	0.19255579

bias f4 [8]
0	0x3e48055c	0.19533294
1	0x3df75e5b	0.12078544
2	0x3e7cf133	0.24701385
3	0xbe235a36	-0.15952381
4	0xbdadf99b	-0.08494874
5	0xbdebd2ca	-0.11514814
6	0x3e099664	0.13436276
7	0xbe9c5823	-0.30535993

weight f4 [8, 1, 3, 3]
0	0x3e5fee68	0.21868289
1	0x3e5c95a8	0.21541464
2	0xbe0cc5bf	-0.13747309
3	0xbe9a818d	-0.30176964
4	0x3e87a9a6	0.2649662
5	0x3e278ee1	0.16363098
6	0xbe2943a0	-0.16529703
7	0x3e904dc6	0.28184336
8	0xbe9a314e	-0.30115741
9	0xbe5e787d	-0.2172565
10	0x3e62e30a	0.22156921
11	0x3e2325ed	0.15932436
12	0xbea4eba2	-0.32211024
13	0xbe8abded	-0.27098027
14	0xbe251dad	-0.16124602
15	0xbd88372d	-0.06651149
16	0x3e5fcc38	0.21855247
17	0x3e36c9bb	0.17850392
18	0xbe2c4d72	-0.16826418
19	0xbbfa1ded	-0.007632962
20	0x3ea88fa8	0.329221
21	0xbe8d3a25	-0.27583423
22	0x3e107414	0.1410678
23	0x3e0ec2fe	0.13941571
24	0x3d34d5c9	0.044149194
25	0x3d6d507b	0.05793808
26	0xbc4b9b38	-0.012427144
27	0xbe7327f6	-0.23745713
28	0x3e7bdca6	0.2459589
29	0x3e0b5155	0.13605244
30	0xbdfcb31c	-0.1233885
31	0xbe7ea114	-0.24866134
32	0x3e9fabca	0.31185752
33	0xbe041e4f	-0.12902187
34	0xbe191f5c	-0.14953369
35	0x3e779297	0.24177013
36	0x3da02f2a	0.07821496
37	0xbe191ff7	-0.149536
38	0xbdc40b3d	-0.09572456
39	0x3e1eab70	0.15495086
40	0xbda26a84	-0.079304725
41	0x3e836c8e	0.25668758
42	0x3e428376	0.18995461
43	0xbe386a97	-0.18009411
44	0xbe72fe0e	-0.23729727
45	0x3dc91c5d	0.09819863
46	0x3d9f7972	0.07786836
47	0x3bdaf1a4	0.006681638
48	0xbea49688	-0.32146096
49	0xbe8e8bef	-0.27841136
50	0x3e2a6850	0.16641355
51	0xbe910013	-0.2832037
52	0x3d8411f1	0.064487346
53	0x3e9d9cf0	0.30783796
54	0xbdc18a5c	-0.09450218
55	0xbe4a3516	-0.19746813
56	0x3d8cbc60	0.06871867
57	0x3ea2d626	0.31804007
58	0xbe105600	-0.14095306
59	0xbe3b0d1c	-0.1826672
60	0xbd71d97a	-0.059045292
61	0xbe8c3ea1	-0.27391532
62	0x3d8052d7	0.062658004
63	0xbc2a6c7e	-0.010401843
64	0xbc96295b	-0.018330267
65	0x3e1ea879	0.15493955
66	0xbe191b76	-0.14951882
67	0xbea68963	-0.32526693
68	0xbe3a5f13	-0.1820033
69	0x3daf8d69	0.08571894
70	0xbdeff224	-0.117161065
71	0xbea5d720	-0.3239069

bias f4 [8]
0	0x3e07f2de	0.1327624
1	0x3e99cea6	0.30040473
2	0xbe933a09	-0.28755215
3	0x3e9f21b5	0.31080404
4	0x3e595e44	0.21227366
5	0xbdbbdd5c	-0.0917308
6	0xbe09ac78	-0.13444698
7	0x3d04b02c	0.032394573

weight f4 [8, 1, 3, 3]
0	0xbd22679a	-0.039649583
1	0xbe838ed9	-0.25694922
2	0xbd568bca	-0.052379407
3	0xbe11b2e5	-0.14228399
4	0x3e61e3b4	0.22059518
5	0x3e0c6e7c	0.13714021
6	0xbea3d8cb	-0.32001337
7	0x3e6692a1	0.22516872
8	0x3dae4bf2	0.08510579
9	0xbc7aecd8	-0.015315257
10	0x3e412c6a	0.18864599
11	0xbe6c1f38	-0.23058784
12	0x3ea7a05b	0.3273953
13	0x3e3bb5ee	0.1833112
14	0x3e9772a1	0.29579642
15	0x3d3767f7	0.044776883
16	0xbe932f6e	-0.28747123
17	0x3dec36d5	0.11533896
18	0x3bb1b31c	0.005422963
19	0x3e3b14fd	0.18269725
20	0xbe11b38f	-0.14228652
21	0xbe593b49	-0.21214022
22	0xbdb6417d	-0.0889921
23	0xbd77a262	-0.060457595
24	0xbdc9ce69	-0.09853823
25	0xbe0cf1a1	-0.13764049
26	0x3d8a8424	0.06763485
27	0xbe9e2708	-0.30889153
28	0x3e30ee11	0.17278315
29	0xbe361f43	-0.17785363
30	0xbd03aaa2	-0.03214515
31	0x3e6f5875	0.23373587
32	0x3d67be42	0.05657793
33	0xbe314f56	-0.1731542
34	0xbe8aeb34	-0.2713257
35	0x3dd22389	0.10260684
36	0x3e323a26	0.17404994
37	0xbdf5e8d5	-0.120073
38	0x3dbdc8d8	0.092668235
39	0x3ea3ece3	0.32016668
40	0x3d838968	0.064226925
41	0x3da1c09d	0.07898066
42	0xbe85a2d0	-0.2610078
43	0xbdda66e2	-0.106641546
44	0xbdb64b60	-0.089010954
45	0xbe176409	-0.14784254
46	0x3e92d447	0.2867758
47	0x3e2944ea	0.16530195
48	0xbe8df3fa	-0.27725202
49	0xbe8128ee	-0.2522654
50	0x3e06d954	0.13168842
51	0xbdae4a58	-0.08510274
52	0xbe83fb90	-0.25777864
53	0xbdfa4363	-0.12219884
54	0x3e097156	0.1342214
55	0xbea8656f	-0.32889888
56	0x3d0eb87d	0.03484391
57	0x3ccdfd97	0.025145335
58	0xbe9fa7f2	-0.3118282
59	0xbca83693	-0.020533836
60	0xbe0292c6	-0.12751302
61	0xbe89e37e	-0.26931375
62	0xbda1f9f5	-0.07909004
63	0x3e48d3fa	0.19612113
64	0xbe9aa648	-0.30204988
65	0xbd8730bb	-0.066010915
66	0x3d7b4349	0.061343465
67	0x3cfe74d2	0.031061564
68	0xbd67322a	-0.056444325
69	0xbd44f03a	-0.04808066
70	0xbe8f6926	-0.2800991
71	0xbe9cedd2	-0.30650192

bias f4 [8]
0	0xbe69ad57	-0.2282003
1	0xbda40db5	-0.08010427
2	0x3e7b866b	0.24562995
3	0x3e32a69b	0.17446367
4	0xbd9728ad	-0.07380805
5	0x3e886995	0.26643053
6	0xbe688b10	-0.22709298
7	0x3df948bb	0.12172075

weight f4 [8, 1, 3, 3]
0	0x3c35b5ff	0.0110907545
1	0x3e80c84a	0.25152808
2	0xbe8f88dd	-0.28034106
3	0x3deb67ec	0.11494431
4	0xbd90c7c3	-0.070693515
5	0x3e1036bb	0.14083378
6	0xbe603baf	-0.21897767
7	0xbdcb2efd	-0.09921072
8	0xbcda7b84	-0.026670225
9	0x3e55fad9	0.20896472
10	0xbe5c8012	-0.2153323
11	0xbe6a4337	-0.22877203
12	0xbe93df4d	-0.28881302
13	0xbe025874	-0.12729055
14	0xbb0a0fb1	-0.0021066482
15	0x3e50ec51	0.20402648
16	0xbe46ac9f	-0.19401787
17	0xbe815b9c	-0.25265205
18	0x3e941894	0.28925002
19	0x3cc24918	0.023716494
20	0x3e47155e	0.19441745
21	0xbd59363b	-0.053030234
22	0x3e427f97	0.18993984
23	0x3e3fef48	0.18743622
24	0xbcb9a954	-0.02266375
25	0xbd9fbd14	-0.07799736
26	0xbe713869	-0.23556675
27	0x3e6339e2	0.2219005
28	0x3dc1ffe1	0.09472633
29	0xbd72b334	-0.059252933
30	0x3e72f5e3	0.23726611
31	0xbea26da2	-0.31724268
32	0xbe964397	-0.29348442
33	0xbe3ab04b	-0.18231313
34	0x3e764363	0.24049143
35	0xbd1832a7	-0.03715768
36	0x3ea7702b	0.32702765
37	0xbc24b5dc	-0.010053124
38	0x3e4167a7	0.18887196
39	0x3e8275fc	0.2548064
40	0xbe0a806f	-0.13525556
41	0x3d8b92c4	0.06815103
42	0xbe8f6a2e	-0.28010696
43	0xbe8b42f6	-0.27199525
44	0xbea6a952	-0.32551056
45	0xbcef4864	-0.029209323
46	0xbd150f27	-0.036391404
47	0xbd3ceb67	-0.046122935
48	0x3ddd4dc5	0.10805849
49	0x3e8c4c50	0.27401972
50	0x3e886dd7	0.266463
51	0xbe98eac8	-0.29866624
52	0xbe89b634	-0.26896822
53	0xbe6f7ad1	-0.23386694
54	0x3b433d5c	0.0029791212
55	0xbdedfc7c	-0.11620423
56	0xbe0ef82a	-0.13961855
57	0xbdd7c168	-0.10534936
58	0x3e7c4986	0.24637422
59	0xbe9ffc07	-0.3124697
60	0x3ea421df	0.32057092
61	0xbd6c22a1	-0.057650212
62	0xbe3b2fb3	-0.18279915
63	0x3e9cd55b	0.30631527
64	0xbe1619fb	-0.14658348
65	0xbe50be9b	-0.2038521
66	0x3e37534f	0.17902873
67	0xbd9dfb67	-0.07713967
68	0xbe07825a	-0.13233319
69	0xbd6aceba	-0.057326056
70	0x3c2fa2c5	0.01071996
71	0xbce02bd8	-0.027364656

bias f4 [8]
0	0x3e0e6953	0.13907366
1	0xbe307820	-0.17233324
2	0xbe931d6e	-0.2873339
3	0x3e148dae	0.14507172
4	0xbdfb4c85	-0.12270454
5	0x3df12910	0.1177541
6	0xbe48bb81	-0.19602777
7	0xbbd9fdd2	-0.006652572
